…
      (PFPPAP): Parameter containing: [torch.cuda.FloatTensor of size 128x256 (cuda:0)]
      (PAIAPAP): Parameter containing: [torch.cuda.FloatTensor of size 128x256 (cuda:0)]
      (PAPAPPP): Parameter containing: [torch.cuda.FloatTensor of size 128x256 (cuda:0)]
      (PAPPPAP): Parameter containing: [torch.cuda.FloatTensor of size 128x256 (cuda:0)]
      (PFPPPPP): Parameter containing: [torch.cuda.FloatTensor of size 128x256 (cuda:0)]
      (PPPAPAP): Parameter containing: [torch.cuda.FloatTensor of size 128x256 (cuda:0)]
  )
  (feat_project_layers): Sequential(
    (0): Conv1d1x1()
    (1): LayerNorm((23, 512), eps=1e-05, elementwise_affine=True)
    (2): PReLU(num_parameters=1)
    (3): Dropout(p=0.5, inplace=False)
    (4): Conv1d1x1()
    (5): LayerNorm((23, 512), eps=1e-05, elementwise_affine=True)
    (6): PReLU(num_parameters=1)
    (7): Dropout(p=0.5, inplace=False)
  )
  (concat_project_layer): Linear(in_features=11776, out_features=512, bias=True)
  (res_fc): Linear(in_features=256, out_features=512, bias=False)
  (lr_output): Sequential(
    (0): Linear(in_features=512, out_features=512, bias=False)
    (1): BatchNorm1d(512, eps=1e-05, momentum=0.1, affine=True, track_running_stats=True)
    (2): PReLU(num_parameters=1)
    (3): Dropout(p=0.5, inplace=False)
    (4): Linear(in_features=512, out_features=349, bias=False)
    (5): BatchNorm1d(349, eps=1e-05, momentum=0.1, affine=True, track_running_stats=True)
  )
  (label_fc): Sequential(
    (0): Linear(in_features=349, out_features=512, bias=False)
    (1): BatchNorm1d(512, eps=1e-05, momentum=0.1, affine=True, track_running_stats=True)
    (2): PReLU(num_parameters=1)
    (3): Dropout(p=0.5, inplace=False)
    (4): Linear(in_features=512, out_features=349, bias=True)
  )
  (label_drop): Dropout(p=0.0, inplace=False)
  (prelu): PReLU(num_parameters=1)
  (dropout): Dropout(p=0.5, inplace=False)
  (input_drop): Dropout(p=0.1, inplace=False)
)
# Params: 16470044
/data/wanglonghao_space/Projects/RGCN/LMSPS/ogbn/utils.py:493: FutureWarning: `torch.cuda.amp.autocast(args...)` is deprecated. Please use `torch.amp.autocast('cuda', args...)` instead.
…
